…
rflow/keras-applications/inception_v3/inception_v3_weights_tf_dim_ordering_tf_kernels_notop.h5\n","87916544/87910968 [==============================] - 3s 0us/step\n","87924736/87910968 [==============================] - 3s 0us/step\n","Model: \"model\"\n","__________________________________________________________________________________________________\n","Layer (type)                    Output Shape         Param #     Connected to                     \n","==================================================================================================\n","input_1 (InputLayer)            [(None, 299, 299, 3) 0                                            \n","__________________________________________________________________________________________________\n","inception_v3 (Functional)       (None, 8, 8, 2048)   21802784    input_1[0][0]                    \n","__________________________________________________________________________________________________\n","batch_normalization_94 (BatchNo (None, 8, 8, 2048)   8192        inception_v3[0][0]               \n","__________________________________________________________________________________________________\n","dropout (Dropout)               (None, 8, 8, 2048)   0           batch_normalization_94[0][0]     \n","__________________________________________________________________________________________________\n","conv2d_94 (Conv2D)              (None, 8, 8, 64)     131136      dropout[0][0]                    \n","__________________________________________________________________________________________________\n","conv2d_95 (Conv2D)              (None, 8, 8, 16)     1040        conv2d_94[0][0]                  \n","__________________________________________________________________________________________________\n","conv2d_96 (Conv2D)              (None, 8, 8, 8)      136         conv2d_95[0][0]                  \n","__________________________________________________________________________________________________\n","conv2d_97 (Conv2D)              (None, 8, 8, 1)      9           conv2d_96[0][0]                  \n","__________________________________________________________________________________________________\n","conv2d_98 (Conv2D)              (None, 8, 8, 2048)   2048        conv2d_97[0][0]                  \n","__________________________________________________________________________________________________\n","multiply (Multiply)             (None, 8, 8, 2048)   0           conv2d_98[0][0]                  \n","                                                                 batch_normalization_94[0][0]     \n","__________________________________________________________________________________________________\n","global_average_pooling2d (Globa (None, 2048)         0           multiply[0][0]                   \n","__________________________________________________________________________________________________\n","global_average_pooling2d_1 (Glo (None, 2048)         0           conv2d_98[0][0]                  \n","__________________________________________________________________________________________________\n","RescaleGAP (Lambda)             (None, 2048)         0           global_average_pooling2d[0][0]   \n","                                                                 global_average_pooling2d_1[0][0] \n","__________________________________________________________________________________________________\n","dropout_1 (Dropout)             (None, 2048)         0           RescaleGAP[0][0]                 \n","__________________________________________________________________________________________________\n","dense (Dense)                   (None, 128)          262272      dropout_1[0][0]                  \n","__________________________________________________________________________________________________\n","dropout_2 (Dropout)             (None, 128)          0           dense[0][0]                      \n","__________________________________________________________________________________________________\n","dense_1 (Dense)                 (None, 4)            516         dropout_2[0][0]                  \n","==================================================================================================\n","Total params: 22,208,133\n","Trainable params: 399,205\n","Non-trainable params: 21,808,928\n","__________________________________________________________________________________________________\n"],"name":"stdout"}]},{"cell_type":"code","metadata":{
…
